modelo.pth (torch, 225669 bytes, 8 tensors)

weight f4 [16, 3, 3, 3]
0	0xbd337ee8	-0.0438222
1	0x3e2c0e37	0.16802298
2	0xbd0e38e2	-0.034722216
3	0x3d784d31	0.06062049
4	0x3d811510	0.063028455
5	0x3dcb3ef2	0.09924115
6	0xbe867319	-0.26259688
7	0xbd7fb5b3	-0.06242914
8	0xbe3b3cee	-0.18284962
9	0x3df76856	0.120804474
10	0x3de86204	0.1134682
11	0x3d99984b	0.07499751
12	0xbd1537df	-0.036430236
13	0x3e111912	0.1416972
14	0x3df16460	0.11786723
15	0xbd4d0a33	-0.050058555
16	0xbd45fcea	-0.0483369
17	0xbe49fb58	-0.19724786
18	0xbda1b445	-0.07895712
19	0x3e25b4e7	0.1618229
20	0x3d8417bb	0.06449839
21	0x3e1a79b4	0.15085489
22	0xbd25d4b4	-0.040486053
23	0xbe2d6970	-0.16934752
24	0xbe40a59a	-0.18813172
25	0x3dacc335	0.0843567
26	0xbb0bf024	-0.0021352852
27	0xbe14648f	-0.14491485
28	0x3d477392	0.0486942
29	0x3da29ed8	0.07940453
30	0x3d98f3be	0.07468365
31	0x3e0ff1ca	0.14057079
32	0xbe3fb1de	-0.18720195
33	0x3e306e52	0.17229584
34	0x3e0c485d	0.1369948
35	0xbde29ff7	-0.11065667
36	0x3b72f632	0.0037073013
37	0xbd52a8f2	-0.05143065
38	0xbe435696	-0.19075999
39	0xbd9d851f	-0.076914065
40	0xbe1b56bd	-0.15169807
41	0xbe9fc08b	-0.31201586
42	0x3ce395b8	0.027781352
43	0x3ea70aae	0.32625335
44	0xbe2dadec	-0.16960877
45	0xbd01da9c	-0.031702623
46	0xbb96a38a	-0.004597132
47	0x3e08a46b	0.1334397
48	0x3e516c2e	0.20451424
49	0x3e98c762	0.29839617
50	0xbdca308f	-0.09872543
51	0x3e246473	0.16053943
52	0x3ecf05ac	0.40434015
53	0x3e493df1	0.19652535
54	0x3d7fc3d7	0.062442627
55	0xbc5239c4	-0.012831155
56	0xbe4d16e2	-0.2002826
57	0x3e019aed	0.12656756
58	0xbe8f91d6	-0.28040951
59	0x3dcc99f2	0.099903
60	0xbea58a71	-0.32332185
61	0x3e430c50	0.19047666
62	0xbda91835	-0.0825657
63	0x3e0ab8e8	0.13547099
64	0xbd860cc1	-0.06545401
65	0xbc7870d4	-0.015163619
66	0x3bb4fbbd	0.0055231736
67	0xbe1b8b1d	-0.15189786
68	0xbc9ed079	-0.019386517
69	0xbe38fe94	-0.18065864
70	0xbd89023d	-0.0668988
71	0x3e38250d	0.17982884
72	0x3e249e3f	0.16075991
73	0xbd1e15d3	-0.038595032
74	0x3d9e756c	0.0773724
75	0x3e90b870	0.28265715
76	0xbdfa9b34	-0.12236634
77	0xbd604f1e	-0.054762952
78	0xbdd2f798	-0.10301131
79	0x3e9a39c1	0.30122188
80	0x3ebe0198	0.3711059
81	0xb8293c80	-4.0349085e-05
82	0x3cc2816e	0.023743358
83	0x3e1741b4	0.14771158
84	0x3e219f94	0.1578353
85	0xbc40f4e5	-0.011777137
86	0x3ec9fbed	0.39450017
87	0x3e8aaa51	0.27083066
88	0x3e5acf22	0.21368077
89	0xbd7f80cb	-0.062378686
90	0xbbcb41e5	-0.0062029236
91	0xbe3d444d	-0.18483086
92	0x3e580cb7	0.210986
93	0x3caaa28f	0.020829467
94	0xbe40636e	-0.1878793
95	0x3e2422ff	0.16028975
96	0xbe041b5a	-0.12901059
97	0xbde56e98	-0.11202735
98	0xbe7f9349	-0.24958529
99	0xbe080d76	-0.13286385
100	0xbe0dceb3	-0.1384838
101	0x3e2bdcfe	0.1678352
102	0xbdd72de7	-0.10506802
103	0x3d0791de	0.033098094
104	0x3eb2cb76	0.34920853
105	0x3e26c775	0.16287024
106	0x3e75c66c	0.24001473
107	0xbd7197d1	-0.058982674
108	0x3d649ad5	0.05581172
109	0x3cb12cee	0.02162787
110	0xbe482a1a	-0.1954731
111	0xbe44dc39	-0.19224633
112	0x3e00122c	0.12506932
113	0xbe645f03	-0.22301869
114	0xbcc53791	-0.024074348
115	0x3cc645b6	0.024203163
116	0x3e664e47	0.22490798
117	0xbda7cb58	-0.081930816
118	0x3dd0dd3c	0.10198447
119	0x3dd7bef5	0.10534469
120	0xbdb65ca1	-0.08904386
121	0x3c38126c	0.011234861
122	0xbe8b8d0b	-0.27256045
123	0x3dad279a	0.08454819
124	0x3e209fe2	0.1568599
125	0x3e203f3b	0.1564912
126	0xbd94da6e	-0.07268225
127	0x3d3b4499	0.045719717
128	0xbdfbcb3c	-0.12294623
129	0xbd948d51	-0.072535165
130	0xbe75a431	-0.23988415
131	0xbda40ec5	-0.080106296
132	0x3dc8df39	0.09808201
133	0x3e617bba	0.22019854
134	0x3e3139d7	0.1730722
135	0xbb3ab879	-0.0028491302
136	0xbe2301ce	-0.15918657
137	0xbe9c4c16	-0.305268
138	0xbdc4d4de	-0.09610914
139	0xbe7814e7	-0.24226724
140	0xbef61530	-0.4806304
141	0xba4a7103	-0.00077225285
142	0xbd0bc599	-0.03412399
143	0xbe9c2348	-0.30495667
144	0x3df6826c	0.12036595
145	0x3e9fba84	0.31196988
146	0x3ea9f632	0.33195645
147	0x3e83f9b1	0.25776437
148	0x3ef7f086	0.48425692
149	0x3ea3dd2d	0.3200468
150	0x3e9de40a	0.30838042
151	0x3ef99f5f	0.48754403
152	0x3ee84b64	0.45370018
153	0xbe8c21a6	-0.27369422
154	0xbea2e882	-0.31818014
155	0xbe52ed93	-0.2059844
156	0xbec00649	-0.37504795
157	0xbe016108	-0.1263467
158	0xbe3db568	-0.18526232
159	0xbcfe484f	-0.031040339
160	0x3df23746	0.11826949
161	0xbe1ca5cf	-0.15297626
162	0x3e97a3dd	0.29617205
163	0x3d89fc53	0.0673758
164	0x3e6a6a40	0.22892094
165	0x3d22a4d2	0.039707966
166	0x3dccb963	0.09996297
167	0x3e926769	0.2859452
168	0x3e9f42c9	0.3110564
169	0x3e023a26	0.12717494
170	0x3d4fd7a1	0.05074275
171	0x3db2b69b	0.087262355
172	0xbd3e157d	-0.04640721
173	0x3d9ff9bf	0.07811307
174	0x3dc75137	0.097322874
175	0xbe361357	-0.17780815
176	0x3e150940	0.1455431
177	0xbdc863da	-0.0978467
178	0xbdf97cac	-0.121819824
179	0xbdfe361b	-0.124126635
180	0x3da059f6	0.07829659
181	0xbe32a1ac	-0.17444485
182	0xbe1863ce	-0.14881822
183	0xbcbfdcdf	-0.02342075
184	0x3e38be8a	0.18041435
185	0xbdcdf49e	-0.10056423
186	0xbe91884b	-0.28424296
187	0xbe5b0371	-0.21388032
188	0xbe713e3c	-0.23558897
189	0xbdb247cf	-0.08705103
190	0xbda50f67	-0.080595784
191	0x3e459512	0.19295147
192	0x3e823569	0.25431374
193	0xbca717f6	-0.020397168
194	0x3c9fed65	0.019522378
195	0xbdcb4f68	-0.09927255
196	0x3d86d864	0.06584242
197	0xbd05a1fa	-0.032625176
198	0xbbb60d83	-0.00555581
199	0x3e1ed29e	0.15510032
200	0x3d77aab1	0.06046552
201	0x3cc0e35e	0.023545917
202	0x3d6a3a9f	0.05718481
203	0xbe179365	-0.1480232
204	0xbc0e9987	-0.008703596
205	0xbe1f7f89	-0.15575995
206	0xbbf37477	-0.007429655
207	0x3d6e6668	0.05820313
208	0xbd034cd1	-0.03205568
209	0x3c419bf2	0.011816965
210	0xbdf79823	-0.12089565
211	0xbdbff836	-0.09373514
212	0x3da50203	0.08057024
213	0x3d5cc48b	0.053898375
214	0x3e2495ef	0.1607282
215	0x3e009b82	0.12559322
216	0x3c8cb6eb	0.017177066
217	0xbd9d273c	-0.07673499
218	0xbc9e7d8c	-0.019346975
219	0xbe5ecd2c	-0.21757954
220	0xbd31b80b	-0.043388408
221	0xbd3b2190	-0.045686305
222	0xbaf3d330	-0.0018602367
223	0xbe6a29a1	-0.22867443
224	0xbe41b282	-0.18915752
225	0x3d02cecc	0.031935498
226	0x3e016a34	0.1263817
227	0xbcd87ce3	-0.026426738
228	0xbde188b7	-0.110124044
229	0xbe00aa22	-0.125649
230	0xbe19a591	-0.15004565
231	0xbe387b56	-0.18015799
232	0x3d5cd07b	0.05390976
233	0xbe022386	-0.12708864
234	0x3e4bf5b2	0.19917944
235	0xbd545590	-0.05183941
236	0x3d9e62d9	0.077336974
237	0x3d643742	0.05571676
238	0x3e217015	0.15765412
239	0x3e2ed134	0.17071992
240	0xbda2d340	-0.07950449
241	0xbd2c72fd	-0.04210185
242	0x3e31ebf2	0.17375162
243	0x3d71fd34	0.059079364
244	0x3d27c6d9	0.04096112
245	0xbe50a77f	-0.20376395
246	0xb8908d62	-6.89279e-05
247	0x3e1ba4f9	0.15199651
248	0xbe402b13	-0.18766432
249	0x3d40041d	0.046878923
250	0x3e8840d7	0.2661197
251	0xbda5559e	-0.08072971
252	0x3e274431	0.16334607
253	0x3e8490b6	0.25891656
254	0xbcd860fb	-0.026413431
255	0x3e28e818	0.16494787

bias f4 [16]
0	0xbd9c1f31	-0.07623137
1	0xbeaa24e3	-0.33231267
2	0xbdd112b5	-0.10208646
3	0xbef7ea35	-0.48420873
4	0xbedf8cc6	-0.4366209
5	0xbead105a	-0.33801538
6	0xbec675a7	-0.38761637
7	0xbf4064d9	-0.7515388
8	0xbe80f62f	-0.25187823
9	0xbefd0fc3	-0.49426088
10	0xbe24a16f	-0.16077207
11	0xbe8a540a	-0.27017242
12	0xbecad98a	-0.39619094
13	0xbf1f367a	-0.621925
14	0xbea4d468	-0.32193303
15	0xbf16011b	-0.58595437

weight f4 [16, 16, 3, 3]
0	0xbdbe11b2	-0.09280719
1	0xbc8894cf	-0.01667252
2	0xbdaba007	-0.08380132
3	0xbd8b5253	-0.068028115
4	0xbdb6c47a	-0.08924194
5	0xbe01ec21	-0.12687732
6	0xbda5a657	-0.080883674
7	0xbdb2143e	-0.08695267
8	0x3bbb5c4e	0.0057177907
9	0xbdfd899a	-0.12379761
10	0xbd26a96c	-0.040688917
11	0xbd7ea0d9	-0.062165115
12	0xbd01ae39	-0.031660292
13	0xbd817162	-0.06320454
14	0xbc0c0dea	-0.008548239
15	0xbd79593d	-0.06087612
16	0xbd01cc3b	-0.03168891
17	0xbdb74928	-0.089495
18	0xbd92a6c9	-0.07160718
19	0xbcb5e46f	-0.022203652
20	0xbd44a116	-0.048005186
21	0x3b703e6c	0.00366583
22	0xbdad3ba6	-0.08458643
23	0xbd06690c	-0.032815024
24	0x3c835e76	0.016036253
25	0xbd911506	-0.07084088
26	0x3d0a0566	0.033696555
27	0xbe2178e8	-0.15768778
28	0x3b3ff47a	0.0029290006
29	0xbdceac83	-0.10091498
30	0x3b50f2f6	0.0031883097
31	0x3d2b02e3	0.0417508
32	0x3cad07e8	0.021121934
33	0xbe0e59f0	-0.13901496
34	0xbc81083e	-0.015751
35	0x3d1e45fd	0.038640965
36	0xbd11a615	-0.03555878
37	0xbcf4f782	-0.029903177
38	0xbd5664c8	-0.052342206
39	0x3c2d8e3b	0.010592992
40	0xbdf0803f	-0.11743211
41	0xbc8c4c6d	-0.017126286
42	0xbd0f24b9	-0.03494713
43	0xbda1dff7	-0.07904046
44	0xbdf9defd	-0.12200735
45	0xbbfde0c9	-0.0077477437
46	0xbe19cf33	-0.15020446
47	0xbd141a6c	-0.03615801
48	0xbc9209c3	-0.01782692
49	0xbd335597	-0.043782797
50	0x3cea907c	0.028633349
51	0xbd9120f6	-0.07086365
52	0xbdc93a9c	-0.09825632
53	0xbdbed18a	-0.0931731
54	0xbc0b981f	-0.008520155
55	0xbd1879cb	-0.037225526
56	0x3c0d2918	0.008615755
57	0xbd6597ba	-0.0560529
58	0xbd8a5eb6	-0.06756346
59	0xbd85f10f	-0.06540119
60	0x3c32c39c	0.010910895
61	0xbd1602d9	-0.03662381
62	0xbdefd43d	-0.11710403
63	0xbdd2989e	-0.10283016
64	0x3d370462	0.044681914
65	0x3c959138	0.018257722
66	0xbdccc71a	-0.09998913
67	0x3cc1813b	0.023621192
68	0xbc2f936c	-0.0107163
69	0xbe020904	-0.12698752
70	0xbd48f33f	-0.049060103
71	0xbd89fd1e	-0.067377314
72	0xbc84114c	-0.016121529
73	0xba4d88ac	-0.0007840495
74	0x3d0ec1e5	0.03485288
75	0x3cd75463	0.026285356
76	0xbc317c88	-0.010832913
77	0xbc6489c1	-0.013948859
78	0x3d2e66a0	0.04257834
79	0xbddbc828	-0.10731536
80	0x3d2e083c	0.04248832
81	0x3b0d570c	0.0021566777
82	0xbd7cb7c3	-0.061698686
83	0x3a8aa488	0.0010577599
84	0xbda21210	-0.079136014
85	0xbdc6514f	-0.09683477
86	0xbd0cbaf8	-0.034357995
87	0xbcc0dbb0	-0.023542255
88	0xbd14be6f	-0.036314424
89	0xbe0ebb7e	-0.1393871
90	0xbd5b8204	-0.05359079
91	0xbb8fbf6c	-0.004386833
92	0xbc343123	-0.010998043
93	0x3bc619db	0.0060455627
94	0xbc5d7667	-0.013516999
95	0xbc0f7745	-0.008756463
96	0xbde749e4	-0.112933904
97	0x3d269a6d	0.040674616
98	0xbd5f1ab5	-0.05446883
99	0xbdc802b6	-0.09766142
100	0xbdbd73f9	-0.09250636
101	0xbd86bd37	-0.065790586
102	0xbd8dea3a	-0.06929441
103	0x3c1e42b3	0.009659457
104	0xbe1bdf07	-0.15221797
105	0xbd720368	-0.05908528
106	0xbd39ef93	-0.04539449
107	0xbdff6068	-0.1246956
108	0xbd49727c	-0.049181446
109	0xbdabc7d2	-0.08387722
110	0xbd03c2c4	-0.032168165
111	0xbdaa99a6	-0.08330087
112	0x3c2805ef	0.010255321
113	0x3ced49e8	0.028965905
114	0xbdec0c54	-0.11525789
115	0xbd9d9a5c	-0.07695457
116	0xbd6c2806	-0.057655357
117	0xbca02a64	-0.019551463
118	0xbca433c5	-0.020044217
119	0xbbedd65a	-0.0072582187
120	0xbc55e60d	-0.013055337
121	0xbd9582aa	-0.07300313
122	0x3b8857b1	0.0041608443
123	0x3c3d7fb4	0.011566091
124	0xbdcb798a	-0.09935291
125	0xbdcf786f	-0.10130393
126	0xbcf0d140	-0.029396653
127	0xbab0666c	-0.0013458258
128	0xbd8ac7a7	-0.06776362
129	0xbdb62ff0	-0.08895862
130	0xbcfdbc71	-0.030973645
131	0xbde2e45e	-0.11078714
132	0xbd0a095c	-0.033700332
133	0xbdd62f27	-0.10458212
134	0xbd2033f9	-0.039112065
135	0x3c2a5c9a	0.0103980545
136	0xbdbb281c	-0.0913851
137	0xbcd4cc83	-0.025976425
138	0x3c315824	0.010824237
139	0xbd242ca1	-0.040081624
140	0xbc940477	-0.018068535
141	0xbd2d9650	-0.042379677
142	0xbb6dc58d	-0.003628108
143	0xbd9104a4	-0.07080963
144	0xbe612f51	-0.21990706
145	0x3bf8da85	0.007594409
146	0xbe46fb54	-0.19431812
147	0xbea9f01a	-0.33190995
148	0x3e05e7df	0.13076733
149	0x3d413be8	0.04717627
150	0xbe8b445f	-0.272006
151	0xbf271c48	-0.6527753
152	0xbf1ea6fc	-0.6197355
153	0xbee91cc2	-0.45529753
154	0x3eb2dc3a	0.34933645
155	0x3e7cbd52	0.24681595
156	0x3de2351f	0.11045288
157	0x3ee34c41	0.44394115
158	0x3ed956be	0.42448992
159	0xbe8d4f11	-0.27599385
160	0xbddfa030	-0.10919225
161	0x3d368f72	0.044570394
162	0xbf2ed410	-0.6829233
163	0x3e103ead	0.14086409
164	0xbec8b52e	-0.3920073
165	0xbed42a71	-0.4143863
166	0x3ee656d3	0.44988117
167	0x3dbe8aa0	0.09303784
168	0xbeb678ce	-0.35639042
169	0xbe9817a5	-0.2970554
170	0xbe189baf	-0.14903139
171	0xbeade7b2	-0.33965832
172	0x3ebebf67	0.37255403
173	0xbe898c14	-0.26864684
174	0xbeb8755a	-0.36027032
175	0x3f45c034	0.77246404
176	0xbe147ba0	-0.14500284
177	0xbdfb5be0	-0.12273383
178	0xbec14d82	-0.37754446
179	0xbc4ced2c	-0.012507718
180	0xbf3e5e8a	-0.74363005
181	0x3c83fde8	0.016112283
182	0xbdcbcdbc	-0.0995135
183	0xbe984464	-0.29739678
184	0x3ea82474	0.32840312
185	0x3eb0d57f	0.34537885
186	0xbeb4ac89	-0.35287884
187	0xbd7d2ddc	-0.061811313
188	0xbd93a8b9	-0.07209916
189	0xbeffe0b4	-0.49976122
190	0xbd921df3	-0.071346186
191	0xbe1d227b	-0.15345185
192	0xbd479b8a	-0.048732318
193	0x3e8a18de	0.26972097
194	0x3ea0b52b	0.3138822
195	0xbdfadac1	-0.12248755
196	0xbf191248	-0.5979352
197	0xbe13762b	-0.14400546
198	0xbe540d32	-0.20708159
199	0xbea0e25b	-0.31422696
200	0xbc110ad7	-0.008852682
201	0xbe8298e1	-0.25507262
202	0x3aeea5a6	0.0018207326
203	0x3d7030e4	0.058640376
204	0xbe9cf060	-0.30652142
205	0xbe918515	-0.28421846
206	0xbded9699	-0.1160099
207	0xbe335372	-0.175123
208	0xbddbc008	-0.107299864
209	0xbd8b926b	-0.068150364
210	0xbe5a052c	-0.21291035
211	0xbe855edc	-0.26048934
212	0xbdfb2de6	-0.12264614
213	0xbd2fe78d	-0.042945433
214	0xbc2e32e9	-0.010632255
215	0xbe37c11b	-0.17944758
216	0xbe5e4dc5	-0.21709354
217	0xbdf0d5f1	-0.11759556
218	0xbda96209	-0.08270652
219	0xbe71ffc8	-0.23632729
220	0xbf789bf3	-0.9711296
221	0xbf37f1af	-0.71853155
222	0xbed61f6b	-0.41820845
223	0xbf007c62	-0.50189793
224	0xbebe98ec	-0.37226045
225	0xbeade166	-0.33961028
226	0x3e3529fd	0.17691799
227	0x3ddc39d9	0.10753221
228	0xbe02e288	-0.12781727
229	0x3e9a2566	0.30106658
230	0x3ebb7ac8	0.36617112
231	0xbe427896	-0.18991312
232	0xbf097386	-0.536919
233	0xbe86d954	-0.26337683
234	0xbec7c1a1	-0.39014915
235	0x3e2d3a1f	0.16916703
236	0xbe288227	-0.16455899
237	0xbe0536f1	-0.1300924
238	0xbe0a8690	-0.13527894
239	0xbe8122cd	-0.25221863
240	0xbe8aa4a1	-0.27078727
241	0xbf2c429c	-0.6728914
242	0xbe851ea8	-0.2599995
243	0xbf13dfc9	-0.57763344
244	0xbe4ddc61	-0.20103599
245	0xbe3091c6	-0.17243108
246	0xbe015cbb	-0.1263303
247	0x3e3e8ee6	0.18609199
248	0x3da6cda8	0.081446946
249	0xbe7c01fa	-0.24610129
250	0xbe6980e2	-0.22803071
251	0xbdd2a107	-0.1028462
252	0xbe8708f9	-0.26374033
253	0x3e643eb3	0.22289543
254	0xbe97b76c	-0.29632127
255	0xbeafbcb4	-0.34323657

bias f4 [16]
0	0xbd1a3399	-0.037646864
1	0xbeadb80c	-0.3392948
2	0xbe075679	-0.1321658
3	0xbcccd880	-0.025005579
4	0xbd8e6fa9	-0.06954891
5	0xbdf5c7b1	-0.12000979
6	0xbdb09494	-0.08622089
7	0xbdb8ac6a	-0.090172604
8	0xbd4b39b5	-0.04961558
9	0xbe6e383f	-0.23263644
10	0x3e130ea0	0.14361048
11	0xbe7327ca	-0.23745647
12	0xbe854a09	-0.26033047
13	0xbdc81c83	-0.09771063
14	0xbc66944e	-0.0140734445
15	0xbdd5b2a3	-0.10434463

weight f4 [24, 16, 3, 3]
0	0xbdfcb125	-0.12338475
1	0x3a17d0c4	0.00057913014
2	0xbe026ba4	-0.12736374
3	0xbd93af9a	-0.07211228
4	0xb991d3d1	-0.0002781437
5	0xbd9ea6ca	-0.07746656
6	0xbd4d6316	-0.050143324
7	0x3d11ed61	0.035626773
8	0xbdbc6b4f	-0.09200155
9	0xbdd542a3	-0.104131006
10	0xbc61b7fb	-0.0137767745
11	0x3e522798	0.20522916
12	0x3e2dd564	0.16975933
13	0x3e2e42bf	0.17017649
14	0x3ea060e7	0.3132393
15	0xbd8294c1	-0.06376029
16	0xbe740173	-0.23828678
17	0x3eac3080	0.33630753
18	0xbdca1272	-0.098667994
19	0xbd71a1c4	-0.058992162
20	0xbda184d3	-0.07886662
21	0xbd520252	-0.051271744
22	0x3c23571a	0.009969497
23	0x3c2c5286	0.010517722
24	0xbdc50282	-0.09619619
25	0xbc73db6e	-0.014883859
26	0xbc597426	-0.013272321
27	0xbce1600f	-0.027511625
28	0xbdc71000	-0.09719849
29	0xbd459776	-0.048240148
30	0xbddf4673	-0.10902109
31	0xbd19d74b	-0.037558835
32	0x3d0bddb4	0.03414698
33	0x3cea20d4	0.028580107
34	0xbd8bd937	-0.0682854
35	0x3bc70d2a	0.0060745673
36	0x3ceed9d1	0.029156597
37	0xbe0b012d	-0.13574667
38	0xbd1ae954	-0.037820175
39	0xbd468350	-0.048465073
40	0xbd58ec43	-0.05295969
41	0xbd421432	-0.04738254
42	0xbdd41d09	-0.103571005
43	0xbddff331	-0.10935057
44	0xbcfa47c1	-0.030551793
45	0x3d9fdef3	0.07806196
46	0x3e03e3ea	0.12879911
47	0xbd4e89f5	-0.050424535
48	0xbd9b7b23	-0.07591846
49	0xbcbb08ff	-0.022831438
50	0xbe1a3359	-0.1505865
51	0x3da70c94	0.08156696
52	0x3d904238	0.0704388
53	0x3cd83472	0.026392195
54	0xbc99725e	-0.018731292
55	0x3cb4ebef	0.022085158
56	0xbb31a11f	-0.0027104092
57	0xbd268323	-0.040652405
58	0xbde3fd71	-0.111323245
59	0xbdd79265	-0.105259694
60	0xbd9ce446	-0.07660727
61	0xbda75902	-0.08171274
62	0xbdc71607	-0.09720998
63	0xbcda81f9	-0.026673304
64	0xbd98180a	-0.0742646
65	0xbb6e40d5	-0.003635456
66	0x3d958056	0.07299869
67	0xbddeea7d	-0.10884569
68	0xbd807c8e	-0.06273757
69	0x3d9e972e	0.07743679
70	0x3c92f3e7	0.017938567
71	0xbc849f9c	-0.016189389
72	0xbe007074	-0.12542897
73	0xbd5db5af	-0.054128345
74	0xbdc72119	-0.0972311
75	0xbced71fe	-0.02898502
76	0x3c1e9caa	0.009680906
77	0xbdf69b4f	-0.120413415
78	0x3d16b3f9	0.03679273
79	0xbd93a29b	-0.07208749
80	0xbd2f4775	-0.042792756
81	0x3e01e423	0.12684684
82	0xbe12c635	-0.14333422
83	0x3ddcb1d2	0.10776104
84	0xbc46f469	-0.012143233
85	0xbceedf32	-0.029159162
86	0xbc50c14e	-0.0127414
87	0x3d4c662a	0.04990212
88	0x3dcbbe36	0.09948389
89	0x3e00ec39	0.12590112
90	0xbdf38521	-0.11890627
91	0xbe625c99	-0.22105636
92	0xbda58abc	-0.08083102
93	0xbdba8d6a	-0.09109004
94	0xbdc73beb	-0.09728225
95	0xbd9894f1	-0.07450283
96	0xbdad85c2	-0.08472778
97	0xbd240ac6	-0.040049337
98	0xbcb5fba7	-0.022214724
99	0xbd72a0c3	-0.059235346
100	0xbdb46a14	-0.08809295
101	0x3dff48f2	0.12465085
102	0xbd655694	-0.05599077
103	0xbceb7117	-0.028740449
104	0xbbc02af6	-0.0058644963
105	0x3dcf99d3	0.101367615
106	0x3d72d9b7	0.05928966
107	0xbd9e0bb8	-0.07717079
108	0xbdc114b6	-0.094277784
109	0xbee6540e	-0.44986004
110	0xbe14bf17	-0.1452602
111	0xbe166940	-0.14688587
112	0xbe4c2ef9	-0.19939794
113	0x3da042b6	0.07825224
114	0xbeb4f1da	-0.35340768
115	0xbe5d96a9	-0.21639504
116	0xbf0500fb	-0.5195462
117	0xbda12fe3	-0.07870462
118	0xbd279986	-0.040917896
119	0xbddf50af	-0.10904061
120	0xbc06f45a	-0.008236969
121	0x3c397440	0.01131922
122	0x3c4c527c	0.012470838
123	0xbd97a315	-0.07404152
124	0xbd836578	-0.06415838
125	0xbdbf9ee0	-0.09356475
126	0xbd3e81e8	-0.046510607
127	0xbd82dd54	-0.06389871
128	0x3d12f291	0.03587586
129	0xbd945f8b	-0.07244786
130	0xbd564e41	-0.052320722
131	0xbc241028	-0.010013618
132	0xbc27ef02	-0.010249855
133	0xbd67d3b2	-0.056598373
134	0x3d124591	0.035710875
135	0xbdf4aaa6	-0.11946611
136	0xbdfab36b	-0.122412525
137	0xbd53aa4f	-0.05167609
138	0x3c3774c1	0.01119727
139	0xbce042e3	-0.027375644
140	0xbcd6eaf6	-0.026235085
141	0xbcbbbcd5	-0.02291719
142	0xbc465e2f	-0.012107416
143	0xbde2e1f3	-0.11078253
144	0xbdc6be62	-0.097042814
145	0xbbb01da7	-0.0053746286
146	0x3e0193b8	0.12654006
147	0xbd0b1133	-0.03395195
148	0x3c98e3ac	0.01866325
149	0x3de03674	0.10947886
150	0x3d05ba1b	0.032648187
151	0xbd2fb4b3	-0.042896938
152	0x3e0ff2f1	0.14057519
153	0xbe83ee8e	-0.2576794
154	0xbea5e3d0	-0.3240037
155	0xbeaae7e4	-0.33380044
156	0xbeaf1461	-0.34195235
157	0xbe1ac1c4	-0.15112978
158	0xbe71e81c	-0.23623699
159	0x3e0cc1fe	0.13745877
160	0xbdae8ea6	-0.08523302
161	0x3bc8066c	0.006104281
162	0xbc4a463b	-0.012345846
163	0x3d207625	0.03917517
164	0x3e09ab0f	0.1344416
165	0x3d3bcef7	0.045851674
166	0x3cfc5b2e	0.030805197
167	0x3e1ef061	0.15521385
168	0xbc83b487	-0.016077293
169	0xbd8e758c	-0.06956014
170	0xbd646d00	-0.055768013
171	0xbd1a313f	-0.03764462
172	0xbd8c4b98	-0.06850356
173	0xbc55bc81	-0.013045431
174	0xbd442653	-0.04788811
175	0xbdbb6537	-0.091501646
176	0xbe880237	-0.2656419
177	0x3cfd3bdf	0.030912338
178	0xbe028553	-0.12746172
179	0xbe0d0681	-0.13772012
180	0xbdfbdeeb	-0.122983776
181	0xbe672137	-0.22571264
182	0xbec2dad0	-0.38057566
183	0xbe4b8e5a	-0.19878522
184	0xbe421397	-0.18952785
185	0xbdbedab3	-0.09319057
186	0xbe825518	-0.25455546
187	0xbd792316	-0.060824476
188	0xbdfe362a	-0.12412675
189	0x3e020ecf	0.12700962
190	0x3dc62613	0.09675231
191	0xbd2fc1c0	-0.042909384
192	0x3c7759c6	0.015097087
193	0x3e101b7c	0.14072984
194	0xbd4ac3df	-0.049503203
195	0x3b6b4d45	0.003590421
196	0x3da3cb80	0.07997799
197	0xbda7eefb	-0.08199879
198	0xbe6e80a7	-0.23291264
199	0xbce97c81	-0.02850175
200	0xbd5a8608	-0.05335048
201	0x3e1d22fe	0.1534538
202	0x3df58b51	0.11989463
203	0xbe94fbe0	-0.29098415
204	0x3e0e79e6	0.13913688
205	0x3dc78686	0.09742455
206	0xbe36f077	-0.17865168
207	0xbe156a1a	-0.14591256
208	0xbca911bb	-0.020638337
209	0xbc54be4f	-0.012984826
210	0x3da97221	0.082737215
211	0x3d1be34b	0.03805856
212	0xbcb61038	-0.02222453
213	0xbc64a9c0	-0.013956487
214	0x3d4decca	0.050274648
215	0x3a1d4296	0.0005998997
216	0xbd4871d5	-0.048936684
217	0xbcf5dbdf	-0.03001207
218	0xbd27d150	-0.0409711
219	0x3d40939e	0.04701578
220	0xbe185565	-0.14876325
221	0x3dec725a	0.11545248
222	0x3d692ef9	0.056929562
223	0xbcc5918c	-0.024117254
224	0xbc9318b6	-0.017956119
225	0x3e0eb79b	0.13937227
226	0xbd2463a9	-0.040134106
227	0xbde642f8	-0.11243242
228	0xbdfa9a23	-0.122364305
229	0x3c902905	0.017597685
230	0xbdf3bd95	-0.11901394
231	0xbdae17b1	-0.085006125
232	0xbdde4998	-0.10853881
233	0x3dfb6d3e	0.12276696
234	0xbf03ec22	-0.51532185
235	0xbba49834	-0.005023027
236	0xbe55cb68	-0.20878375
237	0x3e3fc316	0.18726763
238	0xbed3b560	-0.41349316
239	0xbf2ca065	-0.6743224
240	0x3e848860	0.25885296
241	0xbeb89b61	-0.36056045
242	0xbe1958bb	-0.14975254
243	0x3daa1455	0.08304659
244	0xbd871899	-0.065964885
245	0x3d275908	0.04085639
246	0xbbf62b45	-0.0075124823
247	0xbd824514	-0.06360832
248	0xbddecf8f	-0.108794324
249	0xbd7a6969	-0.061135683
250	0xbd95d012	-0.07315077
251	0x3d70d79a	0.058799364
252	0xbf24fd0a	-0.64448607
253	0xbe1bd127	-0.15216504
254	0xbd8ecce5	-0.06972674
255	0xbd8a3765	-0.06748847

bias f4 [24]
0	0xbe2fb588	-0.17159092
1	0xbe1848fe	-0.14871594
2	0xbe307220	-0.17231035
3	0xbce6fc8a	-0.028196592
4	0xbdebf3fc	-0.11521146
5	0xbee7e586	-0.452923
6	0xbd34d67f	-0.044149872
7	0xbd794be6	-0.060863398
8	0xbd180200	-0.037111282
9	0xbcb77ec3	-0.022399312
10	0xbe6304bb	-0.22169773
11	0xbd7a1457	-0.061054554
12	0xbeaee626	-0.34159964
13	0x3e02c7e2	0.12771562
14	0xbd8c802e	-0.06860386
15	0xbd5eee51	-0.054426495
16	0xbdb87f52	-0.090086594
17	0xbd9914df	-0.07474684
18	0xbde21bab	-0.110404335
19	0xbda72310	-0.081609845
20	0xbdceda14	-0.10100189
21	0x3d8f718b	0.070040785
22	0xbd4eb36e	-0.050464086
23	0xba915326	-0.0011087402

weight f4 [8, 6144]
0	0x3dbde1e1	0.092715986
1	0x3d22cb26	0.03974452
2	0x3c4bb3e1	0.012433023
3	0xbd467cfb	-0.048459034
4	0xb97aa1a2	-0.00023902071
5	0xbdaf1f63	-0.085509084
6	0xbc0c2ef2	-0.0085561145
7	0x3b154a01	0.0022779705
8	0xbdef6b98	-0.11690444
9	0xbaf9f7d4	-0.0019071051
10	0xbd9094ad	-0.07059608
11	0xbdc3f900	-0.09568977
12	0xbba475fb	-0.005018947
13	0x3b65e29d	0.00350777
14	0xbb7ed7c5	-0.0038885933
15	0x3d3e28eb	0.04642574
16	0xbc32c15a	-0.010910356
17	0x3d1af616	0.037832342
18	0xbd7ed491	-0.062214438
19	0xbd21d490	-0.039509356
20	0x3c95c50e	0.01828244
21	0xbd28dde1	-0.041227225
22	0x3c8c46cc	0.017123602
23	0xbd24db91	-0.040248457
24	0xbd1acc14	-0.03779228
25	0xb9432a7e	-0.00018612479
26	0x3bd59af4	0.006518716
27	0x3befce12	0.0073182667
28	0xbc8fffe3	-0.017578071
29	0x3d0c15ba	0.034200408
30	0xbd0fdde8	-0.035123736
31	0xbdc8bd6d	-0.09801755
32	0x3b1c95dd	0.0023893036
33	0xbcba354f	-0.022730498
34	0x3afcff2e	0.0019302124
35	0xbdbe743f	-0.09299516
36	0xbda7ca33	-0.08192863
37	0xbc138928	-0.009004869
38	0xbc9678e4	-0.018368192
39	0xbdb86a4b	-0.09004649
40	0xbd2f07dd	-0.04273211
41	0xbbcee34e	-0.006313718
42	0xbc8e8ea2	-0.017401997
43	0xbda03331	-0.07822264
44	0xbcfc7308	-0.03081657
45	0xbc7309f3	-0.014833915
46	0x3cf78268	0.03021355
47	0xbca0608a	-0.019577283
48	0xbdb6a130	-0.08917463
49	0xbcbb96c5	-0.022899041
50	0xbd00949f	-0.031391736
51	0xbd1ce2d2	-0.03830225
52	0xbda9f555	-0.082987465
53	0xbcb6570d	-0.022258306
54	0x38fbe384	0.00012010991
55	0xbe20377e	-0.15646169
56	0x3cece85c	0.028919391
57	0x3caf9688	0.021434084
58	0xbc9ae86d	-0.018909657
59	0x3bea3c75	0.0071483203
60	0x3d1ec107	0.038758304
61	0xba088489	-0.00052077376
62	0x3c31f426	0.010861432
63	0x3d07b63c	0.033132777
64	0xbcc56bbe	-0.024099227
65	0x3c857eb8	0.016295776
66	0x3b79bbe4	0.0038106376
67	0xbb574a06	-0.0032850518
68	0x3c8904eb	0.016725978
69	0x3cdd39de	0.027005132
70	0xbc85660f	-0.016284017
71	0xbd993549	-0.074808665
72	0xbc8663a9	-0.016404944
73	0x3d091f4e	0.03347712
74	0x3c9f7650	0.019465595
75	0xbddb1a17	-0.106983356
76	0xb9a11f1b	-0.00030731488
77	0x3ca86c07	0.020559324
78	0xbc3c2d26	-0.011485374
79	0x3ce875c4	0.028376468
80	0x3da2ce95	0.07949559
81	0xbd056797	-0.032569494
82	0x3d123de1	0.035703544
83	0x3da2620a	0.07928856
84	0x3c891457	0.016733332
85	0xbcf2a4ee	-0.02961966
86	0x3cc49b34	0.023999788
87	0xbc46b221	-0.01212743
88	0xbd3aaac2	-0.045573004
89	0xbb902857	-0.00439934
90	0xbd124a05	-0.03571512
91	0x3cc41945	0.02393783
92	0xbc3da328	-0.011574544
93	0xbb326d49	-0.0027225784
94	0x3d9984ce	0.074960336
95	0x3c950d65	0.018194864
96	0x3ccdadd4	0.025107302
97	0xbe0fd625	-0.14046533
98	0x3d9e4d87	0.07729631
99	0xbd8da1be	-0.069156155
100	0x3df59cf7	0.11992829
101	0xbc26021b	-0.010132338
102	0xbd6a0c3d	-0.057140578
103	0xbe160e0a	-0.14653793
104	0x3dc880e6	0.097902104
105	0x3e5787b9	0.21047868
106	0x3d447bc4	0.047969595
107	0x3cc27efd	0.023742193
108	0xbd0629fe	-0.03275489
109	0xbd2557e8	-0.040367037
110	0x3c37d8ea	0.01122115
111	0x3d347faa	0.044067062
112	0xba2c56e7	-0.0006574229
113	0x3ce9451d	0.028475339
114	0xbda8e753	-0.082472466
115	0xbe3d3f3d	-0.18481155
116	0x3d51675f	0.051123973
117	0x3e4654f7	0.19368349
118	0x3e8b8a41	0.27253917
119	0x3dfddb64	0.12395361
120	0x3d11ef9f	0.03562891
121	0xbb58bc4b	-0.0033071216
122	0x3cef12ba	0.029183734
123	0xbe474eff	-0.19463728
124	0x3cc9050a	0.024538536
125	0xbd8f429d	-0.06995127
126	0xbd776f70	-0.06040901
127	0x3da1d26d	0.07901464
128	0x3dab5f02	0.08367731
129	0x3dd76016	0.10516374
130	0x3e415374	0.18879491
131	0x3cc05f8b	0.023483058
132	0x3e14db01	0.14536668
133	0x3e9c8db7	0.3057687
134	0x3dfa6659	0.122265525
135	0x3e035e2b	0.12828891
136	0x3e39a31c	0.18128628
137	0x3e91b00c	0.28454626
138	0x3cf9403d	0.030426139
139	0xbe2e9376	-0.1704844
140	0x3e62149b	0.22078173
141	0xbe09b3b5	-0.13447459
142	0x3d0c5d00	0.03426838
143	0xbabc4381	-0.001436338
144	0x3dd26c68	0.10274583
145	0xbd99c1e4	-0.07507685
146	0xbced5e64	-0.028975673
147	0x3d608823	0.05481733
148	0x3d6ea64a	0.058264054
149	0xbe77950f	-0.24177955
150	0x3d41d064	0.047317877
151	0x3dc96abf	0.09834813
152	0xbe3fc86f	-0.18728803
153	0x3b9de74d	0.004818833
154	0x3d06633d	0.032809485
155	0xbcc3d0b3	-0.023903226
156	0xbdbb51cf	-0.09146463
157	0xbcc3bea4	-0.023894615
158	0xbe945037	-0.2896745
159	0xbe45036e	-0.1923959
160	0xbe0419b3	-0.12900428
161	0xbe9889ce	-0.29792637
162	0x3e28c832	0.16482618
163	0x3e02a9e2	0.12760118
164	0x3d922021	0.07135034
165	0x3d91b86b	0.07115253
166	0x3ccb0468	0.024782375
167	0x3c75b67e	0.014997123
168	0x3e4cc40c	0.19996661
169	0xbe37863f	-0.17922305
170	0xbe64ac0f	-0.2233126
171	0xbe216422	-0.15760854
172	0xbd9b397c	-0.07579324
173	0xbe39e207	-0.18152629
174	0x3da2b74d	0.07945118
175	0xbe0d516a	-0.13800588
176	0x3dac1b48	0.08403641
177	0x3e8233f7	0.2543027
178	0xbe0481f5	-0.129402
179	0x3de76767	0.11299019
180	0xbc3091f5	-0.010776986
181	0x3e582bff	0.21110533
182	0x3e9dc823	0.30816755
183	0x3e0a1f72	0.13488558
184	0x3c1049a5	0.008806621
185	0x3b62109b	0.003449476
186	0xbe96396e	-0.2934069
187	0x3e6439df	0.22287701
188	0x3d00f6a0	0.0314852
189	0x3d9bc437	0.076057844
190	0x3e75a616	0.23989138
191	0x3e148dd3	0.14507227
192	0xbcf123d2	-0.029436026
193	0xbc8d904c	-0.01728072
194	0xbdf12bc2	-0.11775924
195	0xbcf88176	-0.03033517
196	0xbe38f288	-0.18061268
197	0xbe694582	-0.22780421
198	0xbe897240	-0.26844978
199	0xbd237b17	-0.03991231
200	0x3e239764	0.1597572
201	0xbd51e401	-0.051242832
202	0xbe751b85	-0.23936279
203	0xbdc890fd	-0.09793279
204	0xbe532549	-0.20619692
205	0xbe441b20	-0.19150972
206	0xbe00c260	-0.12574148
207	0xbe130374	-0.14356786
208	0xbdcd8c90	-0.10036576
209	0xbdd0f306	-0.10202603
210	0xbca821e3	-0.020523971
211	0xbc66c269	-0.014084437
212	0x3c28a6f8	0.010293715
213	0xbc99bb47	-0.018766059
214	0x3c3c1445	0.011479442
215	0xbc634c7f	-0.013873219
216	0xbdd82dce	-0.105556116
217	0x3e25f8a5	0.16208132
218	0xbcb820d9	-0.0224766
219	0x3bf528e5	0.0074816816
220	0xbdd49672	-0.10380258
221	0xbdbd61a0	-0.09247136
222	0xbea25e86	-0.3171274
223	0xbe99dc05	-0.30050674
224	0xbb419d92	-0.0029543382
225	0x3d2f95e3	0.042867552
226	0x3c4ed957	0.01262506
227	0x3c98c19d	0.01864701
228	0xbb13b6c0	-0.0022539347
229	0xbc9d5401	-0.019205095
230	0x3bb310af	0.0054646353
231	0x3d21aba2	0.039470322
232	0x3ced031c	0.028932147
233	0x3dd2b9ae	0.10289322
234	0x3d6e9130	0.05824393
235	0xbc85ab24	-0.016316958
236	0xbd5e21e0	-0.054231524
237	0x3cdfedfd	0.027335161
238	0x3d16d4fb	0.036824208
239	0x3c70d6f5	0.014699687
240	0x3dd51cc9	0.10405881
241	0xbca97912	-0.020687614
242	0x3d2150be	0.039383642
243	0x3c956fe6	0.018241834
244	0xbdd76c9a	-0.10518761
245	0xbd5b7080	-0.053574085
246	0xbd210d40	-0.039319277
247	0xbcb08230	-0.021546453
248	0x3d19ec37	0.037578788
249	0xbcdf31d7	-0.027245445
250	0xbd8bc5aa	-0.06824811
251	0x3e3b2cb8	0.18278778
252	0xbbdf85cf	-0.006821371
253	0xbd18308a	-0.037155665
254	0xbbc72b13	-0.006078133
255	0xbeb3823e	-0.35060304

bias f4 [8]
0	0x3eb2fc03	0.34957895
1	0xbc78ae50	-0.015178278
2	0xbf0b8ed4	-0.54514813
3	0xbf3f4f4c	-0.7473037
4	0x3ec36dea	0.38169795
5	0x3eef2399	0.46706846
6	0xbeba1def	-0.36350963
7	0x3f178c98	0.59198904
